python/mnist.pt (torch, 104595 bytes, 8 tensors)

weight f4 [10, 1, 5, 5]
0.0835161 0.18038736 0.08692002 0.15605092 0.08156288 0.16165604 0.26286477 0.22626628
0.088521555 -0.25002864 -0.124486774 0.3902529 0.39170128 0.29268518 0.13982008 0.22107932
0.3028202 0.3384026 0.20955373 0.26778552 0.11079128 -0.0065882457 0.15303908 -0.03145491
0.24013084 -0.09887266 -0.1890879 0.049299903 0.3049296 -0.08237143 0.12629002 -0.0039454782
0.18324341 0.32837546 0.19839051 -0.06519663 0.0716921 0.38041782 0.292994 -0.05396353
-0.03304047 0.050570656 0.13863477 0.093851306 0.18287298 0.25342047 0.26345086 0.19993636
0.21674548 0.15859121 -0.032472428 -0.18944041 0.08263806 0.2743105 0.29719335 -0.22745095
-0.12156951 0.20459788 0.09000894 0.33063048 -0.21243575 0.1819412 -0.085683495 0.28784177
-0.09030921 0.16597018 0.040540032 0.08379889 0.030422311 0.14368203 0.0795119 0.112334445
-0.11258964 0.17070007 -0.06504456 -0.19281851 -0.091727406 -0.22593059 0.032844897 -0.14593266
-0.16463321 -0.023156311 -0.12891702 -0.028538058 -0.31896752 0.14126019 0.047320463 -0.10155161
-0.12074147 -0.079777114 0.30331072 0.15743032 0.29181713 0.355468 0.34492785 0.055556953
0.24752153 0.06483733 0.18205756 0.12188376 -0.028178923 -0.11248927 0.15685733 -0.16926146
0.18341668 0.17268781 0.029263934 -0.14901236 0.014414594 0.07379816 0.06634147 0.2823289
-0.04444864 0.11589906 -0.21344608 0.30722186 0.33835295 -0.03476828 0.18879631 -0.2515575
0.24566413 0.2688314 -0.14690574 0.033094797 -0.017005976 0.04185255 -0.12792553 -0.0030718583
0.19694535 0.3062807 0.013397123 0.1112714 0.06998133 -0.10318561 0.16794832 -0.22522551
-0.17595117 -0.0765642 -0.1836745 -0.08705531 -0.07209378 -0.21305397 -0.12234841 -0.18604918
0.042922497 0.07333372 0.15081249 -0.108884834 -0.15098149 -0.037967574 0.23065406 0.15648237
0.15560181 -0.08647847 0.25236818 0.05384155 0.027321065 -0.039210528 0.24796079 0.23704103
0.114986025 0.05234697 0.042814735 0.1164001 -0.031153245 -0.13192788 0.1838138 -0.06250751
0.084649794 0.24370864 -0.19559883 -0.21531315 -0.02721376 0.13635936 0.024909092 -0.071561046
-0.13006833 -0.22817384 -0.005206231 0.059124935 -0.0286371 -0.13312896 -0.034971632 0.06521952
0.16280602 -0.09588927 -0.1783382 0.029645864 0.069383316 -0.034777917 0.023325253 0.16871467
0.25168043 0.21913815 0.20519105 0.04229687 0.19405767 0.15075424 0.04534891 0.06954774
0.12984265 0.009105157 -0.11223889 -0.12559038 0.2241825 0.110377155 -0.19477002 -0.081149936
-0.0969298 0.2777012 0.13298233 -0.0749056 -0.14690895 0.06963079 0.2779466 -0.13390413
-0.14848165 0.015635453 -0.094100006 0.2640185 -0.19033572 -0.17235482 -0.121957496 0.072845384
0.23539805 -0.08876969 -0.13857882 0.09580354 -0.26697126 -0.23928225 -0.123815924 0.12786765
0.083069056 -0.2141483 -0.2588162 0.1327836 0.07729041 0.31410906 0.2015536 0.04772771
0.114550024 0.1783544 0.28480983 0.16880886 0.057141762 -0.08353909 0.054106317 -0.113687895
0.16787696 0.20218305
00000000: 7d0a ab3d 77b7 383e 2003 b23d d0cb 1f3e
00000010: 700a a73d 2989 253e 3696 863e 59b2 673e
00000020: ca4a b53d c103 80be ecf2 febd 3acf c73e
00000030: 128d c83e d5da 953e ff2c 0f3e 9e62 623e
00000040: 400b 9b3e 1b43 ad3e 4195 563e 2f1b 893e
00000050: 8ae6 e23d 36e2 d7bb 47b6 1c3e ddd6 00bd
00000060: dce4 753e c07d cabd 42a0 41be b2ee 493d
00000070: bc1f 9c3e 5ab2 a8bd 2c52 013e 1249 81bb
00000080: 29a4 3b3e d420 a83e e226 4b3e d085 85bd
00000090: 4fd3 923d 20c6 c23e 4f03 963e dd08 5dbd
000000a0: 7255 07bd 2d23 4f3d 46f6 0d3e 1d35 c03d
000000b0: 0e43 3b3e 54c0 813e 08e3 863e 1ebc 4c3e
000000c0: 87f2 5d3e bc65 223e cf01 05bd abfc 41be
000000d0: 253e a93d 6d72 8c3e ba29 983e e7e8 68be
000000e0: 6ff9 f8bd 1b82 513e 9b56 b83d 6648 a93e
000000f0: c288 59be cb4e 3a3e d47a afbd ff5f 933e
00000100: 09f4 b8bd 16f4 293e 4e0d 263d c19e ab3d
00000110: 3638 f93c 6221 133e 23d7 a23d 9a0f e63d
00000120: 6695 e6bd 00cc 2e3e 1536 85bd 3772 45be
00000130: 94db bbbd 595a 67be 5f88 063d 5f6f 15be
00000140: 9c95 28be 4eb2 bdbc d302 04be a5c8 e9bc
00000150: b64f a3be 83a6 103e 1ad3 413d 4afa cfbd
00000160: 4e47 f7bd 2f62 a3bd 8b4b 9b3e 6a35 213e
00000170: 0e69 953e e7ff b53e 629a b03e b08f 633d
00000180: 4976 7d3e 6fc9 843d 4c6d 3a3e 319e f93d
00000190: 7cd7 e6bc c660 e6bd 359f 203e e052 2dbe
000001a0: 95d1 3b3e 13d5 303e ebba ef3c b296 18be
000001b0: 302b 6c3c 7d23 973d 09de 873d 6a8d 903e
000001c0: c70f 36bd 7d5c ed3d 9c91 5abe 2f4c 9d3e
000001d0: 993c ad3e 2f69 0ebd d253 413e 25cc 80be
000001e0: 618f 7b3e 45a4 893e 756e 16be 698e 073d
000001f0: 1e50 8bbc 946d 2b3d e9fe 02be 3b51 49bb
00000200: 0bac 493e d3d0 9c3e 9b7f 5b3c 42e2 e33d
00000210: 5f52 8f3d fa52 d3bd a5fa 2b3e 84a1 66be
00000220: 8b2c 34be b1cd 9cbd 2b15 3cbe 0e4a b2bd
00000230: e7a5 93bd d22a 5abe ce91 fabd ad83 3ebe
00000240: 80cf 2f3d fd2f 963d 976e 1a3e 03ff debd
00000250: e49a 1abe e383 1bbd 9430 6c3e ea3c 203e
00000260: 1556 1f3e a01b b1bd 6736 813e f588 5c3d
00000270: 6dd0 df3c 389b 20bd 6fe9 7d3e e2ba 723e
00000280: cb7d eb3d c769 563d 815e 2f3d 2d63 ee3d
00000290: 1735 ffbc 1a18 07be af39 3c3e f003 80bd
000002a0: df5c ad3d c28e 793e 0f4b 48be 0d7b 5cbe
000002b0: 64ef debc caa1 0b3e 270e cc3c 998e 92bd
000002c0: a230 05be 67a6 69be 0899 aabb fd2c 723d
000002d0: 5a98 eabc f552 08be 6a3e 0fbd d091 853d
000002e0: 9fb6 263e 9861 c4bd 4a9e 36be e2db f23c
000002f0: d718 8e3d 4a73 0ebd 9a14 bf3c 8ac3 2c3e
00000300: 42dc 803e c065 603e 9a1d 523e 7c3f 2d3d
00000310: 0eb7 463e 525f 1a3e c7bf 393d 0c6f 8e3d
00000320: 79f5 043e cc2d 153c 81dd e5bd c49a 00be
00000330: 1990 653e 6b0d e23d cb71 47be f031 a6bd
00000340: 2283 c6bd da2e 8e3e 852c 083e 1b68 99bd
00000350: 4d6f 16be 969a 8e3d 044f 8e3e 2a1e 09be
00000360: 930b 18be ec15 803c 81b7 c0bd 6f2d 873e
00000370: 5ee7 42be c87d 30be dac4 f9bd f62f 953d
00000380: 300c 713e e2cc b5bd 9be7 0dbe a534 c43d
00000390: 75b0 88be 6806 75be 3493 fdbd bdef 023e
000003a0: 1c20 aa3d b149 5bbe 8f83 84be 6df8 073e
000003b0: 6f4a 9e3d e7d2 a03e 1164 4e3e 227e 433d
000003c0: 3499 ea3d 89a2 363e 98d2 913e 3bdc 2c3e
000003d0: 7b0d 6a3d 8b16 abbd 969e 5d3d 33d5 e8bd
000003e0: f0e7 2b3e 1309 4f3e

bias f4 [10]
0.20935138 0.08925333 0.22631463 0.11043433 -0.0764906 -0.105773486 -0.023110336 -0.15785795
0.16876176 0.00016724208
00000000: 3560 563e 73ca b63d 06bf 673e 652b e23d
00000010: 1ba7 9cbd c59f d8bd e351 bdbc 84a5 21be
00000020: e2cf 2c3e b45d 2f39

weight f4 [20, 10, 5, 5]
0.08759039 0.07893749 -0.035815574 -0.0066965353 -0.08590082 -0.0022131326 0.11422707 0.018450156
-0.09421927 -0.002338066 -0.04267619 0.07133622 0.021829858 -0.07938836 0.047017183 0.066673584
0.025441844 -0.082474135 -0.052551318 0.06681917 0.040745806 -0.053568836 -0.010298462 -0.05152719
-0.00092480425 0.014489603 -0.004009121 -0.054099813 -0.08372615 0.024586895 0.06932118 0.02077117
-0.050276212 -0.00017974454 -0.014041212 0.088502795 0.12295838 -0.037518855 -0.035696913 0.06441136
0.087167926 -0.011211797 -0.028856982 0.05305973 0.09220418 -0.015387644 -0.004948526 -0.038726866
0.041824415 0.052654073 0.04558638 -0.022455225 -0.021098008 -0.049453106 -0.016346592 -0.017816532
0.008661191 -0.08347576 -0.08705865 -0.022025988 0.14137538 0.06928779 -0.09162045 -0.021401457
0.021312071 0.118086495 -0.024225306 -0.037089262 0.008794437 0.00987877 0.0006148525 0.02262664
0.017508486 -0.009018393 0.102117226 0.0026642876 -0.043280736 0.03591476 -0.06397097 -0.06066874
-0.100136116 -0.0021685588 -0.00692046 -0.09357368 -0.05679134 -0.050977204 -0.07662747 -0.09402808
-0.07257714 -0.05283641 0.04180198 -0.03173842 -0.101438016 -0.062032238 0.017182244 -0.07569287
-0.009110638 -0.021357773 -0.041461006 0.06245715 -0.05929526 0.057415728 0.025379173 -0.03376433
-0.051341068 -0.12278675 0.026058635 0.11969658 -0.0508382 -0.044542734 0.03811098 0.050178222
0.037388515 -0.07544689 -0.038095742 0.0075049438 0.047943164 0.010793795 -0.0053789206 0.004763705
-0.04161484 0.0056690397 -0.02474165 0.05213985 0.038873617 0.022413464 0.038415767 -0.013004199
-0.014535503 0.01475036 -0.04296527 0.0056512244 -0.0571057 0.022383563 -0.021758245 -0.0043913764
0.011775538 -0.016743848 -0.017192805 0.055797916 0.037224557 -0.0865813 -0.07366838 0.0065988316
0.008094744 0.014509496 0.05264547 -0.046191357 0.0025792576 -0.052231133 0.08372569 -0.013262717
-0.008617112 0.006888847 -0.042036865 0.055437706 -0.055942394 -0.0005653038 -0.016370418 -0.015269181
0.07235286 -0.040694237 -0.013834833 -0.039703503 -0.0159936 -0.008539667 0.005549655 -0.018997027
0.016626861 0.08836936 -0.056494765 -0.06816369 -0.040756825 -0.0160691 0.015847297 -0.07692603
-0.04001481 0.0060564205 0.017502 0.018751044 0.029906012 -0.057741143 -0.04377038 -0.04880905
0.009065458 0.056890767 0.05834057 -0.004733032 -0.042514205 0.06302354 -0.013042895 -0.013648842
0.011906232 -0.0062066237 0.023300592 -0.046900176 -0.05188702 0.041538298 -0.02390996 0.078193404
0.027206171 -0.00833705 -0.018859986 -0.0018387989 0.0072895507 0.11460023 0.036113515 0.013807597
-0.018469553 0.070495725 0.028337603 0.016136454 -0.027421124 0.10719758 0.055452246 -0.023023756
0.05659795 -0.019519633 0.02133604 0.10320804 -0.007940007 -0.0430817 0.021868862 -0.008767327
0.009303109 -0.02633081 0.001224285 -0.05876778 0.025230424 0.029572686 0.010858007 0.024354398
-0.044004545 -0.07184433 0.03739897 -0.03761457 0.06386607 -0.07712146 -0.09634693 0.0123744905
-0.06351977 -0.041318633 -0.022397926 -0.024878345 -0.048630573 -0.07251568 0.034446456 -0.024503468
-0.05773758 0.024493188 -0.011731496 -0.028531756 -0.03289963 0.027082892 0.041056514 0.0318923
00000000: 9762 b33d fba9 a13d 5ab3 12bd 9c6e dbbb
00000010: c5ec afbd 340a 11bb e2ef e93d c824 973c
00000020: 08f6 c0bd 3d3a 19bb 3bcd 2ebd b918 923d
00000030: 88d4 b23c 5d96 a2bd 1795 403d 298c 883d
00000040: 6a6b d03c 33e8 a8bd 0d40 57bd 7dd8 883d
00000050: 13e5 263d ff6a 5bbd e1ba 28bc 2d0e 53bd
00000060: 906e 72ba cd65 6d3c f25e 83bb c497 5dbd
00000070: 9e78 abbd 756a c93c 43f8 8d3d 4d28 aa3c
00000080: 6eee 4dbd cf79 3cb9 1d0d 66bc f440 b53d
00000090: 9ad1 fb3d 5fad 19bd ed36 12bd 1aea 833d
000000a0: 1985 b23d afb1 37bc 7a65 ecbc 2955 593d
000000b0: 8cd5 bc3d 751c 7cbc 3f27 a2bb 10a0 1ebd
000000c0: 1450 2b3d ccab 573d c9b8 3a3d 05f4 b7bc
000000d0: bbd5 acbc 578f 4abd 4ae9 85bc faf3 91bc
000000e0: abe7 0d3c 57f5 aabd ce4b b2bd d86f b4bc
000000f0: b5c4 103e c2e6 8d3d 81a3 bbbd 1c52 afbc
00000100: a796 ae3c 55d7 f13d 2674 c6bc e9ea 17bd
00000110: 8b16 103c 91da 213c 0e2e 213a 815b b93c
00000120: f56d 8f3c e2c1 13bc d622 d13d 549b 2e3b
00000130: 2447 31bd 5b1b 133d 3603 83bd c97f 78bd
00000140: 2a14 cdbd 611e 0ebb 07c5 e2bb 8fa3 bfbd
00000150: 099e 68bd 79cd 50bd ddee 9cbd cb91 c0bd
00000160: 53a3 94bd fe6a 58bd 8e38 2b3d 2500 02bd
00000170: bcbe cfbd 8415 7ebd c7c1 8c3c dd04 9bbd
00000180: c944 15bc 7ff6 aebc 04d3 29bd 12d3 7f3d
00000190: 96df 72bd c12c 6b3d fce7 cf3c 774c 0abd
000001a0: 034b 52bd 9f77 fbbd eb78 d53c 7b23 f53d
000001b0: b73b 50bd 7172 36bd 421a 1c3d ae87 4d3d
000001c0: b324 193d e683 9abd 480a 1cbd 08ec f53b
000001d0: 0d60 443d 75d8 303c a841 b0bb db18 9c3b
000001e0: 5374 2abd 5ac3 b93b 00af cabc 9890 553d
000001f0: f139 1f3d 719c b73c da59 1d3d 900f 55bc
00000200: 5226 6ebc 7eab 713c 5afc 2fbd e82d b93b
00000210: abe7 69bd bc5d b73c 593e b2bc 89e5 8fbb
00000220: 30ee 403c 652a 89bc edd7 8cbc 5b8c 643d
00000230: c778 183d 8951 b1bd 73df 96bd 033b d83b
00000240: d19f 043c 3db9 6d3c c7a2 573d 2633 3dbd
00000250: c308 293b 50f0 55bd 6078 ab3d de4b 59bc
00000260: ca2e 0dbc d6bb e13b d92e 2cbd a612 633d
00000270: da23 65bd e530 14ba 411b 86bc 962b 7abc
00000280: bc2d 943d 00af 26bd 7fab 62bc 24a0 22bd
00000290: 0305 83bc f6e9 0bbc e1d9 b53b a79f 9bbc
000002a0: 0e35 883c fffa b43d 0e67 67bd 6899 8bbd
000002b0: a1f0 26bd 58a3 83bc 31d2 813c 658b 9dbd
000002c0: 92e6 23bd f074 c63b 5b60 8f3c ca9b 993c
000002d0: 74fd f43c fa81 6cbd 9248 33bd 00ec 47bd
000002e0: 4987 143c 4b06 693d 86f6 6e3d 8d17 9bbb
000002f0: 6023 2ebd 7c12 813d deb1 55bc 659f 5fbc
00000300: 5b12 433c ef60 cbbb e2e0 be3c 661a 40bd
00000310: 7c87 54bd 1024 2a3d d2de c3bc dd23 a03d
00000320: 7adf de3c 1f98 08bc 4280 9abc da03 f1ba
00000330: 2fdd ee3b 86b3 ea3d c4eb 133d 4239 623c
00000340: 764d 97bc 1060 903d 4324 e83c 9930 843c
00000350: 44a2 e0bc 688a db3d e521 633d 519c bcbc
00000360: 41d3 673d a3e7 9fbc ebc8 ae3c bd5e d33d
00000370: ce16 02bc 7076 30bd 5426 b33c d6a4 0fbc
00000380: 116c 183c b6b3 d7bc 3078 a03a 7cb6 70bd
00000390: 09b0 ce3c 6b42 f23c c8e5 313c e082 c73c
000003a0: 1c3e 34bd 1f23 93bd aa2f 193d bc11 1abd
000003b0: 37cc 823d dbf1 9dbd 8a51 c5bd 60be 4a3c
000003c0: a716 82bd ba3d 29bd db7b b7bc accd cbbc
000003d0: da30 47bd 1a83 94bd ba17 0d3d 7fbb c8bc
000003e0: 3e7e 6cbd f0a5 c83c 7635 40bc 6ebb e9bc
000003f0: c3c1 06bd f1dc dd3c e02a 283d 80a1 023d

bias f4 [20]
0.011289056 -0.005485355 -0.059077453 0.029678725 0.04045484 0.023905845 -0.05115691 0.0056109033
0.023101848 0.04855544 0.0009135944 0.044994663 0.031230778 -0.040166248 0.030308684 -0.009260315
-0.02289209 0.007328103 -0.05043325 0.026598714
00000000: bcf5 383c 7ebe b3bb 33fb 71bd cc20 f33c
00000010: f9b3 253d 31d6 c33c e889 51bd abdb b73b
00000020: 1640 bd3c 12e2 463d 487e 6f3a 534c 383d
00000030: b0d7 ff3c 5d85 24bd eb49 f83c 94b8 17bc
00000040: 3188 bbbc 9520 f03b 1893 4ebd 8ce5 d93c

weight f4 [60, 320]
0.054491982 -0.024882566 0.0447743 0.058018126 -0.019113842 -0.023468625 0.05618353 0.027153213
0.03194661 0.038699694 0.022522943 0.00743915 -0.014095079 -0.03612547 -0.026802776 0.005690428
-0.014950733 0.039228976 0.034029584 -0.03778234 -0.064685725 0.031564694 -0.06987832 -0.02686285
0.028454587 0.05741497 0.014611455 -0.020090329 0.106987156 -0.023602001 -0.06629065 0.03808851
-0.05498841 -0.03761974 -0.0056252885 0.049771965 -0.04247409 -0.045386057 0.053031757 -0.03759197
-0.027289536 -0.048467375 0.034055457 -0.05070036 0.001528229 -0.055961348 -0.05267843 -0.00849369
-0.051738463 0.052805442 0.054219693 -0.013211817 0.0015689883 0.064208254 -0.011880134 -0.026796546
0.018595602 0.033099618 -0.040541533 -0.029897265 0.036309354 0.054758646 -0.016571272 -0.029396113
-0.03054789 0.005852177 -0.0034863239 0.009200142 0.032199603 0.0135192145 0.019693851 -0.010263653
0.0101983715 -0.069196545 0.02086578 0.06604799 -0.05241415 -0.045888145 0.051496748 0.07558858
-0.03289053 -0.0453806 -0.02938011 0.0074520926 0.016196351 0.0022988557 0.033949908 0.029486936
-0.030514067 0.09702533 -0.06981361 0.045128696 0.017370157 0.053623516 -0.030307967 -0.02566407
0.03632952 0.03247321 0.01862088 0.03814225 0.0167432 -0.04319263 -0.013875404 0.037781134
-0.078334115 -0.0044540055 -0.038234793 -0.004810917 0.01967399 0.07381045 0.048921123 0.033034056
0.034166332 0.017068436 0.00573178 0.046199694 0.0029923022 0.009525136 -0.042024236 -0.0046182526
0.042480234 0.07898837 -0.003976249 0.0011440024 -0.031126697 -0.07119164 -0.02526827 0.020652678
-0.028266346 -0.018917033 0.011767446 0.0045196563 0.04295074 0.065384716 -0.017600287 0.020465823
-0.009076074 -0.02467962 0.017030155 -0.03334306 -0.0013921522 0.031804346 -0.06350206 -0.027845828
0.012767203 0.044380702 0.009171492 0.06393994 -0.035957098 -0.03775536 0.0047522 0.0056208544
-0.08884189 -0.03526631 -0.019050596 0.020977875 0.046275314 0.07202577 -0.0053239954 -0.035258666
0.039265167 0.051014077 -0.013581151 -0.03712332 0.017148918 0.02027058 0.014031115 -0.038930967
0.01580227 0.03419389 -0.033850573 0.022806978 -0.01012968 0.04827139 -0.04403281 -0.009830342
0.024617169 0.063199416 0.010978388 -0.017583193 -0.034604356 -0.05333392 0.03339087 0.012616571
-0.047075897 -0.0032796068 0.016445518 -0.013062799 -0.033923306 0.046754226 0.09258127 0.0033181119
0.0030168628 -0.00017602343 0.006480804 -0.04137621 -0.022068866 0.0040498753 -0.06125961 -0.03634308
-0.038732544 -0.021867124 -0.004677699 0.047715828 -0.010990073 0.12274466 0.0363178 0.0051602176
0.0074570747 0.016104098 0.008361358 0.042616583 0.0153804105 -0.048515137 0.04990633 -0.0494354
-0.015908925 -0.012964648 -0.00011463069 0.03487528 -0.014750566 -0.019060329 0.055015024 0.0013574901
-0.0027707305 0.041942246 0.022095723 -0.027050812 -0.0034415273 0.04106037 -0.058335282 -0.027981348
0.041044082 0.0348228 -0.03311755 0.05360943 0.053951968 -0.019782081 -0.0102748275 0.049466584
-0.017428583 0.035249103 -0.017900687 0.032299463 -0.06336856 0.021713426 -0.038569856 0.010142603
-0.069276884 0.025570301 -0.016340388 0.044859346 -0.08377942 0.0085112965 0.029007772 0.03715017
00000000: fc32 5f3d 86d6 cbbc 4265 373d 6aa4 6d3d
00000010: a294 9cbc 4641 c0bc b320 663d 6a70 de3c
00000020: 73da 023d 9283 1e3d 0982 b83c 1dc4 f33b
00000030: 0cef 66bc 4df8 13bd 7f91 dbbc c576 ba3b
00000040: ebf3 74bc 90ae 203d 9b62 0b3d a8c1 1abd
00000050: f379 84bd fb49 013d 5d1c 8fbd 7b0f dcbc
00000060: 9819 e93c f62b 6b3d e264 6f3c 7994 a4bc
00000070: 151c db3d fc58 c1bc 64c3 87bd b302 1c3d
00000080: 873b 61bd 2817 1abd 5754 b8bb b0dd 4b3d
00000090: 50f9 2dbd bbe6 39bd d437 593d 0afa 19bd
000000a0: 4e8e dfbc ba85 46bd bc7d 0b3d 2eab 4fbd
000000b0: db4e c83a ba37 65bd 56c5 57bd 1e29 0bbc
000000c0: b6eb 53bd 854a 583d 7815 5e3d 6076 58bc
000000d0: 83a6 cd3a 9e7f 833d e5a4 42bc 6e84 dbbc
000000e0: ce55 983c 7793 073d e10e 26bd 1ceb f4bc
000000f0: 1eb9 143d 9a4a 603d 7ac0 87bc 1ed0 f0bc
00000100: 923f fabc 9ec3 bf3b cf7a 64bb 31bc 163c
00000110: bbe3 033d b27f 5d3c 0055 a13c e128 28bc
00000120: 1217 273c ebb6 8dbd b6ee aa3c 2b44 873d
00000130: 38b0 56bd 35f5 3bbd 41ee 523d 2fce 9a3d
00000140: 38b8 06bd 02e1 39bd 8eae f0bc af30 f43b
00000150: 36ae 843c 66a8 163b 0f0f 0b3d 968e f13c
00000160: a3f8 f9bc 37b5 c63d 70fa 8ebd ded8 383d
00000170: dc4b 8e3c 55a4 5b3d 6a48 f8bc 753d d2bc
00000180: 43ce 143d a102 053d d18a 983c 0c3b 1c3d
00000190: 0929 893c c1ea 30bd aa55 63bc 64c0 1a3d
000001a0: a36d a0bd e8f2 91bb 169c 1cbd e6a4 9dbb
000001b0: 592b a13c ef29 973d 8461 483d b84e 073d
000001c0: fff1 0b3d 1bd3 8b3c a8d1 bb3b e43b 3d3d
000001d0: 801a 443b 510f 1c3c 9b21 2cbd b654 97bb
000001e0: c1ff 2d3d a8c4 a13d 324b 82bb 5af2 953a
000001f0: 6afd febc eccc 91bd 67ff cebc ce2f a93c
00000200: d38e e7bc e5f7 9abc 3fcc 403c a019 943b
00000210: 1ded 2f3d 6ce8 853d 7a2e 90bc f1a7 a73c
00000220: d0b3 14bc ea2c cabc d382 8b3c bc92 08bd
00000230: e078 b6ba 4645 023d 5e0d 82bd ef1c e4bc
00000240: 882d 513c 8ac8 353d 0744 163c f1f2 823d
00000250: c047 13bd 5da5 1abd 58b8 9b3b 252f b83b
00000260: bdf2 b5bd 6873 10bd ff0f 9cbc cbd9 ab3c
00000270: 2f8b 3d3d 3f82 933d e974 aebb 646b 10bd
00000280: 83d4 203d 23f4 503d 7a83 5ebc 9f0e 18bd
00000290: e37b 8c3c 7d0e a63c c3e2 653c 1476 1fbd
000002a0: c373 813c e40e 0c3d e6a6 0abd b3d5 ba3c
000002b0: f5f6 25bc 39b8 453d bf5b 34bd 710f 21bc
000002c0: f2a9 c93c b26e 813d b2de 333c a10a 90bc
000002d0: 4cbd 0dbd ab74 5abd ddc4 083d bcb5 4e3c
000002e0: a8d2 40bd acee 56bb c0b8 863c 5a05 56bc
000002f0: 2af3 0abd 5c81 3f3d 409b bd3d ae74 593b
00000300: 8fb6 453b ee92 38b9 ed5c d43b 1a7a 29bd
00000310: c4c9 b4bc d1b4 843b 5beb 7abd 7bdc 14bd
00000320: 04a6 1ebd af22 b3bc 6247 99bb ac71 433d
00000330: b50f 34bc 8d61 fb3d f9c1 143d 0b17 a93b
00000340: 7a5a f43b beec 833c 14fe 083c ba8e 2e3d
00000350: 1efe 7b3c cfb7 46bd 946a 4c3d c67c 4abd
00000360: 6f53 82bc ad69 54bc e265 f0b8 62d9 0e3d
00000370: 5cac 71bc 6824 9cbc 6f57 613d cfed b13a
00000380: 2595 35bb a2cb 2b3d 1702 b53c aa99 ddbc
00000390: 3f8b 61bb eb2e 283d faf0 6ebd 2439 e5bc
000003a0: d71d 283d 5aa2 0e3d 45a6 07bd 9095 5b3d
000003b0: bdfc 5c3d 080e a2bc c057 28bc 799d 4a3d
000003c0: 63c6 8ebc 5d61 103d 76a4 92bc 714c 043d
000003d0: 60c7 81bd 5be0 b13c 6dfb 1dbd 292d 263c
000003e0: 0ae1 8dbd cf78 d13c 47dc 85bc 6fbe 373d
000003f0: 8b94 abbd f772 0b3c b5a1 ed3c c72a 183d

bias f4 [60]
0.01289754 -0.031534635 0.0054075 0.02983965 -0.054603934 0.009741789 -0.009588228 -0.028537605
0.04889797 0.0010467862 0.05184459 -0.007560187 0.029158466 -0.03344429 -0.03806788 0.0037225015
-0.046004724 -0.04314743 0.02115614 -0.0474001 0.036760546 0.049579132 0.0026419982 0.048150755
0.021800864 -0.0031989012 -0.0022637625 0.0014431251 -0.027282193 -0.0013154378 -0.021610798 -0.031135537
0.019407738 0.042446446 -0.021287637 0.050452676 -0.0060954522 -0.02610428 0.03547657 0.0056663747
-0.019754814 -0.048295863 -5.334416e-05 -0.040547077 0.026634632 0.04233117 0.016949106 -0.045426257
0.008469184 0.04328873 0.030591363 0.005057541 0.016760185 0.025094962 -0.004136944 0.054399986
-0.0027403156 0.0050042216 0.014850745 0.027987354
00000000: 3450 533c 762a 01bd 6631 b13b 4872 f43c
00000010: 60a8 5fbd 069c 1f3c f117 1dbc b2c7 e9bc
00000020: 3d49 483d 5134 893a fe5a 543d 72bb f7bb
00000030: bcdd ee3c e1fc 08bd 11ed 1bbd 36f5 733b
00000040: 736f 3cbd 5cbb 30bd a44f ad3c 9b26 42bd
00000050: 3a92 163d 7d13 4b3d 6025 2d3b ba39 453d
00000060: ba97 b23c a8a4 51bb a25b 14bb 3e27 bd3a
00000070: e87e dfbc c56a acba 2109 b1bc f40f ffbc
00000080: fafc 9e3c 53dc 2d3d 6963 aebc 77a7 4e3d
00000090: 5cbc c7bb a5d8 d5bc e14f 113d ffac b93b
000000a0: d9d4 a1bc e2d1 45bd dbbd 5fb8 b114 26bd
000000b0: df30 da3c 7363 2d3d dad8 8a3c e210 3abd
000000c0: 55c2 0a3c 864f 313d bd9a fa3c bbb9 a53b
000000d0: a84c 893c f393 cd3c 348f 87bb 85d2 5e3d
000000e0: de96 33bb 74fa a33b 8a50 733c bc45 e53c

weight f4 [10, 60]
0.13165753 0.017231846 -0.14192301 -0.08102253 0.04932149 -0.0052207005 0.114572175 0.04451872
-0.21223804 -0.05471345 -0.015749307 -0.25089607 0.06261513 0.031183386 0.09973288 -0.07694641
-0.12458746 0.17936794 0.09508239 0.19539809 0.16377982 0.028144123 -0.0002852184 0.11529055
-0.07044661 -0.06363761 0.01910123 -0.13890241 -0.08720739 -0.0992199 0.030977273 0.12797655
0.027199531 -0.033034433 0.12993011 0.09781079 -0.0966563 -0.03272763 0.07754168 -0.07907066
-0.110168904 0.12299966 0.027095918 0.02651775 -0.15662727 -0.017409261 -0.07132748 0.059337385
-0.158105 0.008946166 -0.04842071 0.068923496 0.14149304 0.15980473 0.031699535 -0.051268443
0.05678382 -0.110793136 0.042120147 0.040226877 0.10061686 0.006685824 0.11189109 -0.07599974
-0.092303 0.09679887 -0.035274595 -0.12203488 -0.028540028 0.0549275 -0.17151475 0.07894386
-0.12815593 -0.08560399 -0.10705326 0.082008325 -0.021167766 0.0479361 0.13644077 -0.1031361
-0.020219792 0.13292155 -0.060489986 -0.15953013 0.26375586 -0.013368631 -0.063563175 -0.063405104
0.079933256 -0.031336483 0.07018007 -0.120323464 0.1855884 0.0699314 0.10330085 0.029486781
0.10008469 -0.020906614 -0.10287193 0.20942599 0.104766615 -0.13567099 0.024834545 -0.0480288
0.18505536 -0.022795657 -0.089627795 0.079572 0.24226628 -5.4363405e-05 -0.10935024 0.11374714
0.03958683 -0.12290241 -0.15809925 -0.06567221 -0.17436534 -0.037069716 0.020457577 0.18769164
0.09336338 -0.05609329 -0.00594399 0.07507464 0.1121859 0.04241783 -0.08410114 -0.09158864
0.05383907 -0.2576952 -0.15148942 -0.29552323 -0.16130556 0.014156181 -0.01890146 -0.17730823
0.15753374 0.08558868 -0.083338715 -0.09577001 -0.0869087 0.036531415 0.06712471 0.034238253
-0.008310847 0.150059 0.13632411 -0.015803656 0.020358473 -0.06763876 0.08933399 0.02810233
0.0728443 -0.018571153 -0.038577348 0.06915093 0.04517969 0.1557866 -0.12346221 0.07610314
0.1683696 0.23268768 -0.057636008 0.06894185 -0.00957968 0.14208068 -0.02533558 0.12844816
0.013416921 -0.08575659 0.028860757 0.04074113 -0.11794359 -0.080993034 0.19651388 0.10645738
-0.05251332 0.116295464 0.017125115 -0.10193964 -0.099522576 0.124516405 -0.014606608 -0.07284851
-0.061628077 0.18488422 0.03385192 -0.060047757 0.01920267 -0.1823604 -0.14963388 -0.10236981
0.11172646 -0.09632481 0.082458146 0.16824637 0.120959945 0.088060044 -0.114351265 -0.018690018
-0.11728259 -0.05033646 -0.03898192 -0.14284053 -0.15645327 0.107312754 -0.122307524 0.19082583
0.056262877 0.104248874 0.09187741 0.05494789 -0.026244782 -0.14867032 0.0065077106 -0.025310727
0.2272879 -0.047160137 0.046686843 -0.09080465 -0.06696344 -0.14003742 -0.09945546 0.114347875
-0.22484295 -0.03582532 -0.18599579 -0.04409933 -0.030821813 -0.04249007 0.049915038 0.13490185
-0.10879827 0.023102604 0.16951612 -0.08035562 0.0010592479 0.17131206 0.15541646 -0.12578692
-0.14448865 0.13752472 -0.21051504 0.1478387 -0.023392554 -0.056093004 0.12334278 -0.1278155
0.18420076 0.07502107 0.17699118 0.19338427 -0.24761276 -0.068102084 -0.22905615 0.1282393
00000000: 3bd1 063e cd29 8d3c 4454 11be 24ef a5bd
00000010: 5505 4a3d 6912 abbb d1a4 ea3d 4359 363d
00000020: ee54 59be 361b 60bd b104 81bc 7375 80be
00000030: 5c3c 803d 4d74 ff3c c140 cc3d 1496 9dbd
00000040: b627 ffbd 3bac 373e 8eba c23d 7016 483e
00000050: e6b5 273e 818e e63c 5e89 95b9 741d ec3d
00000060: 5046 90bd 6f54 82bd 2f7a 9c3c 6f3c 0ebe
00000070: ca99 b2bd ce33 cbbd 0dc4 fd3c 490c 033e
00000080: 8dd1 de3c 1d4f 07bd 660c 053e 0651 c83d
00000090: bdf3 c5bd 680d 06bd 2cce 9e3d ccef a1bd
000000a0: 3ca0 e1bd 3fe7 fb3d 42f8 dd3c c13b d93c
000000b0: e662 20be de9d 8ebc 2414 92bd c20b 733d
000000c0: 47e6 21be f192 123c cb54 46bd c327 8d3d
000000d0: 8de3 103e daa3 233e 5fd7 013d dcfe 51bd
000000e0: 2796 683d 83e7 e2bd 2d86 2c3d f0c4 243d
000000f0: 3610 ce3d c214 db3b 2827 e53d c0a5 9bbd
00000100: 5b09 bdbd 7c3e c63d 187c 10bd 6ced f9bd
00000110: c7cc e9bc a9fb 603d 90a1 2fbe 52ad a13d
00000120: 4f3b 03be 2551 afbd bd3e dbbd fbf3 a73d
00000130: 0668 adbc a558 443d 21b7 0b3e 0539 d3bd
00000140: faa3 a5bc 961c 083e 59c4 77bd de5b 23be
00000150: 020b 873e 1a08 5bbc 692d 82bd 89da 81bd
00000160: 0cb4 a33d af5a 00bd 92ba 8f3d 266c f6bd
00000170: e30a 3e3e 3238 8f3d 658f d33d 438e f13c
00000180: 34f9 cc3d 5944 abbc 85ae d2bd c473 563e
00000190: e18f d63d 56ed 0abe d171 cb3c d9b9 44bd
000001a0: 277f 3d3e f5bd babc c78e b7bd a5f6 a23d
000001b0: a714 783e 4304 64b8 05f3 dfbd 43f4 e83d
000001c0: cd25 223d 42b4 fbbd c5e4 21be 277f 86bd
000001d0: d48c 32be 6ad6 17bd a696 a73c 3d32 403e
000001e0: 4d35 bf3d 14c2 65bd cdc5 c2bb bcc0 993d
000001f0: b9c1 e53d 52be 2d3d 383d acbd d392 bbbd
00000200: 5b86 5c3d a0f0 83be 0b20 1bbe d24e 97be
00000210: 492d 25be 54ef 673c 3cd7 9abc 4a90 35be
00000220: 8650 213e 1e49 af3d 7dad aabd 1123 c4bd
00000230: 30fd b1bd f7a1 153d ae78 893d 693d 0c3d
00000240: 382a 08bc 11a9 193e 8c98 0b3e ab76 81bc
00000250: d0c6 a63c 3186 8abd bdf4 b63d dc36 e63c
00000260: 642f 953d 8822 98bc 4803 1ebd 019f 8d3d
00000270: 570e 393d 8686 1f3e c1d9 fcbd f7db 9b3d
00000280: 1569 2c3e ae45 6e3e bc13 6cbd 6231 8d3d
00000290: 17f4 1cbc 997d 113e 908c cfbc ea87 033e
000002a0: a5d2 5b3c 27a1 afbd 656d ec3c 2ce0 263d
000002b0: 698c f1bd addf a5bd ef3a 493e 5406 da3d
000002c0: 3518 57bd 512c ee3d f849 8c3c bbc5 d0bd
000002d0: 7ed2 cbbd 7502 ff3d 8e50 6fbc 9a31 95bd
000002e0: b96d 7cbd 4a52 3d3e 50a8 0a3d a3f4 75bd
000002f0: eb4e 9d3c afbc 3abe a039 19be 43a7 d1bd
00000300: d8d0 e43d f145 c5bd d1df a83d c748 2c3e
00000310: d9b9 f73d d358 b43d ff30 eabd cf1b 99bc
00000320: db31 f0bd 9b2d 4ebd 81ab 1fbd ca44 12be
00000330: 4935 20be cac6 db3d 5e7c fabd d967 433e
00000340: e773 663d 6f80 d53d 392a bc3d 0a11 613d
00000350: 4cff d6bc 083d 18be a23e d53b 7158 cfbc
00000360: 29be 683e fd2a 41bd b43a 3f3d caf7 b9bd
00000370: 2124 89bd f865 0fbe 4eaf cbbd 382f ea3d
00000380: 3b3d 66be 92bd 12bd ae75 3ebe 80a1 34bd
00000390: 077e fcbc 110a 2ebd b673 4c3d b623 0a3e
000003a0: a1d1 debd ac41 bd3c a295 2d3e 7d91 a4bd
000003b0: 76d6 8a3a 6e6c 2f3e 7e25 1f3e 49ce 00be
000003c0: d5f4 13be 48d3 0c3e 4191 57be 0763 173e
000003d0: bea1 bfbc c7c1 65bd 249b fc3d 11e2 02be
000003e0: 209f 3c3e a6a4 993d 2d3d 353e 8706 463e
000003f0: 338e 7dbe 1b79 8bbd b28d 6abe 2a51 033e

bias f4 [10]
-0.13894029 0.10777648 -0.15343672 -0.04378257 0.00851067 0.03917417 -0.12235858 -0.07429847
0.050062224 0.0016305783
00000000: 5d46 0ebe eab9 dc3d 841e 1dbe 5a55 33bd
00000010: 5670 0b3c 1875 203d 2397 fabd cc29 98bd
00000020: 0c0e 4d3d 21b9 d53a
